…
------| Inputs = 1 X Frames X (Obs + Rewards + Actions) Outputs = 1 X Actions The following is a example summary of the model from tensor flow on the base Single Environments Model: \"functional_1\" __________________________________________________________________________________________________ Layer (type) Output Shape Param # Connected to ================================================================================================== observations (InputLayer) [(None, 5, 77)] 0 __________________________________________________________________________________________________ fc_0 (Dense) (None, 5, 256) 19968 observations[0][0] __________________________________________________________________________________________________ fc_value_0 (Dense) (None, 5, 256) 19968 observations[0][0] __________________________________________________________________________________________________ fc_flatten_1 (Flatten) (None, 1280) 0 fc_0[0][0] __________________________________________________________________________________________________ fc_value_flatten_1 (Flatten) (None, 1280) 0 fc_value_0[0][0] __________________________________________________________________________________________________ fc_1 (Dense) (None, 256) 327936 fc_flatten_1[0][0] __________________________________________________________________________________________________ fc_value_1 (Dense) (None, 256) 327936 fc_value_flatten_1[0][0] __________________________________________________________________________________________________ fc_out (Dense) (None, 51) 13107 fc_1[0][0] __________________________________________________________________________________________________ value_out (Dense) (None, 1) 257 fc_value_1[0][0] ================================================================================================== Total params: 709,172 Trainable params: 709,172 Non-trainable params: 0 __________________________________________________________________________________________________ Arguments: TFModelV2 {[type]} -- [description] \"\"\" PREV_N_OBS = \"prev_n_obs\" PREV_N_REWARDS = \"prev_n_rewa
…
